checkpoint_actors_and_critics.pth (torch_old, 136873 bytes, 110 tensors)

fc1.weight f4 [32, 24]
000000 4f 51 62 bd c6 65 24 3f c4 b2 9d bb fb be 26 3e
       -0.055253323 0.64217794 -0.0048125703 0.16283791
000010 12 98 8f 3e dd b9 fc 3e ea 63 11 3d a5 b9 9a 3d
       0.28045708 0.49360552 0.035495676 0.0755494
000020 a1 d3 2a be 4f d0 5d 3e cb 9e 91 3a 8c d4 62 bc
       -0.16682293 0.21661495 0.0011109946 -0.01384462
000030 f7 cd 3a 3c 93 86 78 3f c9 58 2a 3d ed 3f 8a 3e
       0.011401645 0.97080344 0.04158858 0.27001897
000040 c7 96 94 3c 0b 54 d2 3e f5 07 a5 bd 88 fc a7 3d
       0.018138302 0.41079745 -0.08058158 0.082024634
000050 27 fc f7 be e6 8d 74 3f fd 62 05 3d e8 a9 02 3e
       -0.48434564 0.9552902 0.032565106 0.12760127
000060 5a db 3b 3e af b5 04 3f e6 de 29 be 02 4b 69 3d
       0.18345395 0.5183973 -0.16588935 0.0569563
000070 dc 28 05 3e c3 7b 0e 3c 08 d7 21 3e 68 17 90 bd
       0.13003868 0.008696499 0.15804684 -0.070357144
000080 63 15 d4 bd 95 1f 0f 3f 80 5d 07 bd a5 33 b1 3d
       -0.10355642 0.55907565 -0.033048153 0.086524285
000090 2d 0a 48 3f 10 39 e7 bd 34 76 22 3d 4c a4 6a be
       0.78140527 -0.11290181 0.03966351 -0.22914237
0000a0 75 75 b8 bd 81 cf 49 3e 0e 28 04 be d9 57 cb bc
       -0.09006778 0.19708063 -0.12905905 -0.024822162
0000b0 59 ab 5a 3f 43 19 57 be 98 ac 31 3e 9d 4c 9a bc
       0.85417706 -0.2100573 0.17350996 -0.01883536
0000c0 79 6d 22 bd de d6 58 be 7e 4b e0 3d ee 82 4a bd
       -0.039655183 -0.21175715 0.10951899 -0.04944127
0000d0 7e 2c 27 3e 37 f1 91 be ee 49 de bd ae 85 7c 3c
       0.16325566 -0.28504345 -0.10853945 0.015412731
0000e0 cf 7a 3b 3d a9 05 e7 bb a5 af 93 bd 14 7a ed 3c
       0.045771416 -0.0070502353 -0.07211236 0.028988875
0000f0 cd 28 72 be 32 af a7 3c 87 1e 23 3d 95 58 9d 3c
       -0.23648377 0.020469282 0.039824035 0.019207278
000100 ad 0d 0d 3e de 03 c2 3e 57 fb 6e bd 54 11 90 bd
       0.13774748 0.37893575 -0.058345165 -0.07034555
000110 3b 29 21 bf 5c b4 8e 3f c1 5c 34 3d 30 f1 d0 39
       -0.6295354 1.1148791 0.04403377 0.0003985255
000120 65 fc e2 bd 1d 24 34 3f b1 92 b0 bc 43 51 72 3e
       -0.11083297 0.70367604 -0.021554323 0.23663811
000130 c0 f6 ec bb 07 b1 f0 be 11 73 aa 3c 8f 0e 49 bc
       -0.0072315633 -0.4701006 0.020806821 -0.012271537
000140 13 0d 88 be 68 0f 42 3f 8a 12 60 3c ac f2 64 3e
       -0.26572475 0.7580476 0.013676295 0.22358197
000150 c9 e2 f5 3d 9e c6 28 bf 8e 11 89 bc 7a 5d 3d 3e
       0.120061465 -0.65928066 -0.016732004 0.1849269
000160 91 1f 14 be 16 a9 8a 3f ad 1b 4e 3d 02 f5 2b be
       -0.14465167 1.0832851 0.050319362 -0.16792682
000170 21 15 d7 3c 70 99 8b bf a2 d7 ab bd 2d 68 ee bd
       0.026255192 -1.09062 -0.08390738 -0.11640964
000180 ac 8e 82 be 86 22 b4 3e 82 01 5b bc d1 cc 0f 3e
       -0.25499475 0.3518259 -0.013367059 0.14042975
000190 08 1c 33 bf dd 03 a5 be 47 1b 92 3d 1f 1f 89 3e
       -0.6996465 -0.3222951 0.07134109 0.26781556
0001a0 1d 9a 61 be 96 ea c8 3d ae 2b b7 3d c9 6d 9b 3e
       -0.22031446 0.09810369 0.08943878 0.30357197
0001b0 f4 0d 37 bf f4 49 91 3d a8 e1 f2 bd 23 a6 54 3e
       -0.71505666 0.070941836 -0.11859447 0.20766501
0001c0 34 19 56 be 6d 03 6f 3e 44 0e f1 bd 36 b0 ce 3d
       -0.20908052 0.2334115 -0.11770299 0.10092203
0001d0 aa 58 b6 bd 82 83 0d 3f df 3b 57 3d 5a 0c d0 3d
       -0.0890363 0.5527879 0.052547332 0.10158606
0001e0 b1 33 22 3e f9 2f 38 be 0d 2b a8 3c d6 f1 92 ba
       0.15840031 -0.1798705 0.02052834 -0.0011210989
0001f0 88 b1 00 bf 28 c4 00 be 4e 06 4b 3a 27 bc 27 3b
       -0.5027089 -0.12574828 0.0007744775 0.0025594325
000200 b6 6d 91 3e da 26 91 3d 0f 2f b0 bb 14 75 a2 3d
       0.28404015 0.070874885 -0.0053767036 0.07932487
000210 11 74 e7 bd 30 6c d8 be 2e 29 e6 bb 11 1a 2d bd
       -0.11301435 -0.4227004 -0.007023952 -0.042261187
000220 25 19 91 3e 76 da 28 be 27 e4 fd bd ef ce 98 bd
       0.28339496 -0.16489586 -0.12397032 -0.074613445
000230 cf 14 da be 2f 40 fd be f2 12 80 3d 01 6d 38 bd
       -0.42594 -0.4946303 0.062536135 -0.04502583
000240 dd 39 1a 3e 39 ad 09 3e fb 40 d9 3d 38 bc 1e 3e
       0.15061136 0.13444985 0.10608097 0.15501487
000250 c2 70 35 bf b4 ab 28 3f 5b 43 21 bd 88 34 f8 bd
       -0.7087518 0.65887 -0.039370876 -0.121193945
000260 10 af 1d 3e fe 87 42 bd 27 f2 be bd d5 86 f3 bd
       0.15398812 -0.047492974 -0.09323531 -0.118909515
000270 34 6c 03 bf ee a5 ae 3c c2 14 3b 3e df a2 64 3d
       -0.5133698 0.021319356 0.18269637 0.05581939
000280 52 ad b4 3c 57 2a e5 bd db 77 24 3c 69 21 95 be
       0.022055302 -0.11189716 0.010038341 -0.29127052
000290 d2 c4 e2 be a5 28 c4 be e5 6f 27 3c 45 c9 25 bd
       -0.44290787 -0.3831226 0.010219549 -0.04047515
0002a0 7b 7a c7 bd 93 6d 18 3c 00 61 99 3c f1 31 68 bd
       -0.09740158 0.009303468 0.018723011 -0.056688253
0002b0 ce f7 b7 3f 69 67 0b 3e 03 f2 59 bd 3f bd 36 bd
       1.4372499 0.13613667 -0.053209316 -0.044614073
0002c0 31 5a 50 3d f9 9a ce 3e 7d d7 1c bd d9 4e 32 3d
       0.050867263 0.4035261 -0.038291443 0.043532226
0002d0 fc f9 a3 3e ae a1 8c 3b fd e1 10 3d 28 6d 97 bd
       0.3202666 0.0042917347 0.03537177 -0.07393867
0002e0 78 c3 c1 3d 3f e8 84 3e 59 e0 de 3d 15 d2 cf bd
       0.09461111 0.2595844 0.10882635 -0.10147492
0002f0 dd c8 ef 3c 6e a0 80 3d 70 f8 36 bd 59 a4 37 3d
       0.029270584 0.062805995 -0.044670522 0.04483447
000300 06 0e 8a be 4f be 23 3e 65 48 b0 3d 1b c6 94 bc
       -0.26963824 0.15990566 0.08607558 -0.01816087
000310 19 6e 16 bc 8e 6b 13 3f 94 c4 70 bd 13 5b 72 3d
       -0.009181523 0.5758599 -0.05878122 0.059168886
000320 87 1d a4 be 13 27 e8 3d 15 47 ee bc 4e 17 31 3e
       -0.32053778 0.11335578 -0.029086629 0.17294046
000330 53 9c 71 be 9a 33 54 3f 34 71 c4 3d 26 6e e6 bd
       -0.23594789 0.8289124 0.09591904 -0.11251478
000340 c6 43 6b be 91 1d ab 3e 7f bc 76 bd 30 17 13 3e
       -0.22975072 0.33420995 -0.060238358 0.14364314
000350 61 35 43 be d5 26 40 3f 74 2f e4 3c 5a d8 89 bd
       -0.19063331 0.7505925 0.027854659 -0.06730719
000360 30 45 1f 3e 9d 1a 99 be 70 be 8b bd 6b ab 64 bc
       0.15553737 -0.29903117 -0.068234324 -0.013956885
000370 ea f5 0f bf e7 e6 12 be 64 44 e4 3c a6 ec b9 3c
       -0.5623461 -0.14345895 0.027864642 0.02269585
000380 a7 14 eb 3e 5a 3e 75 bc 3b d0 ba bd 51 d9 9d 3d
       0.45914194 -0.014968479 -0.09121748 0.077074654
000390 0b ab cf be 18 50 30 be 8b bd 94 3d 71 3c 84 3d
       -0.40560183 -0.17218053 0.07262715 0.06456841
0003a0 16 3f 83 3d ae c8 6c bd fa 5f 83 bc 33 60 c9 3d
       0.06408517 -0.05780857 -0.016036976 0.09832802
0003b0 20 4a 64 be 5e 65 27 3e 5b 8f 15 3d 8a de a4 3e
       -0.22293901 0.16347262 0.036513668 0.32201034
0003c0 a0 65 76 3d e4 b9 d7 3e b5 13 d2 bd 3b 34 c4 bd
       0.06015551 0.4213401 -0.10257665 -0.09580275
0003d0 a2 5b 09 bf cc 6c 26 3e 75 5e cd 3d af 26 b6 bd
       -0.53655446 0.1625244 0.10027782 -0.08894097
0003e0 12 e8 b6 3d 9a 96 82 3e 8c 9e 55 bd fa 9b 86 3d
       0.08930983 0.25505525 -0.052153155 0.06572719
0003f0 e8 32 0f bf 91 aa e2 3c 6d 0e 88 3d bc 4a f2 bd
       -0.5593705 0.027669223 0.066433765 -0.11830661

fc1.bias f4 [32]
000000 0a d5 27 bf 27 0e aa 3e af af 09 bf 89 a0 7f be
       -0.65559447 0.33213922 -0.53783697 -0.24963583
000010 a2 a0 34 be 33 2b c6 3e b0 b9 fd 3e 8a 38 20 bf
       -0.17639402 0.38704833 0.4955573 -0.6258627
000020 1d 64 9b 3f 92 d1 89 3d ab 56 91 bf 0f c2 d4 3d
       1.2139927 0.067294255 -1.1354574 0.10388576
000030 6a 83 9c bf 5e e1 45 bf ac 3b 3f 3e 3d 52 92 3d
       -1.2227604 -0.7729701 0.18675107 0.07144592
000040 52 16 74 be 64 40 97 be 04 c0 3a bf a7 2b 13 3f
       -0.2383664 -0.29541314 -0.7294924 0.57488483
000050 71 be 51 be 6b 8c 01 bf 04 87 c8 bf 70 18 b1 3e
       -0.20482804 -0.50604886 -1.5666203 0.34588957
000060 ab aa 44 3e 18 c3 38 3f c3 30 a2 3e 6f ac e7 3e
       0.1920573 0.7217269 0.31677827 0.45248744
000070 42 41 9d bf ec 3d 99 3e 9b fe 67 bf 57 5f 16 bf
       -1.228554 0.29930055 -0.9062287 -0.5873923

fc2.weight f4 [32, 32]
000000 a3 67 93 3c d8 96 70 3e a6 2e 05 3f fc 11 d9 bd
       0.017993754 0.23495042 0.52024305 -0.10599133
000010 4d 44 68 3c 67 c8 d7 3d bc ee c8 be 7b 22 11 bf
       0.01417644 0.105362706 -0.3924464 -0.5669324
000020 18 d1 17 be bc 41 43 be 5f 93 46 3e 93 e8 0f 3f
       -0.14825857 -0.19068044 0.19392155 0.56214255
000030 41 67 da 3d 48 78 54 be 2c 97 b5 bd c0 40 cf 3b
       0.10664225 -0.20749009 -0.08866724 0.0063248575
000040 70 4c 07 3f cb 68 fd be b2 39 e4 3d fe ab 46 3e
       0.5285101 -0.49494013 0.11143817 0.19401547
000050 b5 12 ca bd ff aa 0f 3f 1e 51 15 3f b3 f9 67 bf
       -0.09866849 0.56120294 0.583269 -0.90615386
000060 d3 4f 93 3e b5 ba 39 bf 72 fc 1b bf 8d 27 a5 be
       0.2877184 -0.7255052 -0.60932076 -0.32256737
000070 28 d5 97 3e 0d 47 25 3e cc bf f1 3d 46 44 db 3d
       0.29654813 0.16140385 0.118041605 0.107063815
000080 68 4d a3 3d 4f 0a 8a 3e c4 2c db 3a 90 13 ae be
       0.079737484 0.2696099 0.0016721715 -0.339993
000090 2b 3a b9 3e a4 de 01 bf 2e 39 40 3e 58 6c 82 bd
       0.3617719 -0.5073035 0.18771812 -0.06368321
0000a0 23 fc bd bd 75 e1 9f 3e 9a d1 b0 3e 56 19 7b bf
       -0.09276607 0.31226698 0.34534913 -0.98085535
0000b0 4d 8d 84 be 01 e1 bb 3d 69 eb b8 3e ea 24 56 bf
       -0.25889054 0.091737755 0.36117104 -0.83650076
0000c0 2e 9b b6 be 6b 5f bf be 6e 0a 5c bd 42 38 26 bf
       -0.35665268 -0.37377486 -0.053720884 -0.6492959
0000d0 f9 6f 78 3e 10 cd 9e be f7 00 3a 3e 00 5f 0e bf
       0.24261464 -0.31015825 0.1816443 -0.5561371
0000e0 6b 65 ff be 8b 77 64 be 17 51 49 be 01 75 5b be
       -0.49882063 -0.22311227 -0.1965984 -0.21431352
0000f0 e5 97 bd 3e ea 52 e5 be f0 13 82 be 77 5e a0 3e
       0.3702995 -0.4478982 -0.25405836 0.3132207
000100 94 df 8b be 2e bb cd bd 33 89 37 3f 73 2d 0d bf
       -0.27319014 -0.10045467 0.71693724 -0.55147475
000110 11 c2 48 3e 74 55 80 3e 99 e6 17 3e 45 d6 37 3e
       0.1960528 0.25065196 0.1483406 0.17952831
000120 c3 35 8d be dc 12 a3 be 77 50 c9 be 20 e8 b4 3d
       -0.2758008 -0.31850326 -0.39319202 0.08833337
000130 9d 6a 3d be b9 b7 3d 3e f2 57 28 3f aa cb 71 be
       -0.18497701 0.18527116 0.65759194 -0.23612848
000140 b4 00 bb 3e f5 41 b1 be 8d 09 a7 bd 62 12 cc be
       0.36523974 -0.34620634 -0.081561185 -0.39857775
000150 41 0c d5 be fb 12 1b be ac 51 7c bf 40 42 a8 be
       -0.4161091 -0.15143959 -0.9856212 -0.32863045
000160 67 cb 5c be b1 98 8d 3d 19 38 cf 3e 1d 12 db be
       -0.21561967 0.06913889 0.40472487 -0.42787257
000170 8a d2 44 3f 4b bf 12 bf 04 55 9e 3e 4b e6 03 bf
       0.7688376 -0.5732314 0.30924237 -0.51523274
000180 e1 80 16 3f 10 7b 03 bf fd 35 55 3f 7a 9e c7 3e
       0.58790404 -0.51359653 0.83285505 0.38988096
000190 72 e9 6f bd af 04 0b 3f 8a b6 93 3e ac 3b bf bd
       -0.05857224 0.5430402 0.28850204 -0.093375534
0001a0 c7 7c 1d 3d 82 c0 b9 bc 33 ea 50 3e fc 48 b8 be
       0.038449075 -0.022674803 0.2040184 -0.35993183
0001b0 ff bb de bd c3 9a 54 3e 7d 21 c6 3d 42 6a 77 be
       -0.10875701 0.20762162 0.09674356 -0.24161628
0001c0 0a 83 1b be 25 5a 0e be bc 40 b0 3e 44 53 d8 3e
       -0.15186706 -0.13901575 0.34424388 0.42251027
0001d0 12 ff df 3e a1 e2 a8 be 41 09 e2 3d df 81 8e bf
       0.4374929 -0.32985404 0.11036921 -1.1133384
0001e0 59 63 f5 3d 6c 28 bc be 14 93 ac be d9 9d 11 bf
       0.1198184 -0.3674959 -0.33705962 -0.5688148
0001f0 72 b5 23 3f 09 9d 82 3e 74 65 75 bd 66 9e c4 3d
       0.6394874 0.25510433 -0.059911206 0.096005246
000200 e9 e7 23 3e ea 94 fd 3d e4 0f c7 3d 27 b1 cd be
       0.16006435 0.12381919 0.09719828 -0.4017422
000210 f3 6b e2 3d 1d 93 9f 3d 85 05 3c bd dc a0 3a 3f
       0.11055746 0.077917315 -0.0459037 0.729017
000220 a9 8a c3 3d 10 40 27 bf a1 b3 22 be 92 a6 94 bd
       0.09547932 -0.65332127 -0.15888835 -0.07258333
000230 23 d8 92 3d b5 4d 91 3e 2e d7 ad bd 90 de c7 3e
       0.07170131 0.28379598 -0.08488308 0.3903699
000240 c2 d8 6c 3f e6 7f 2a 3f d7 34 72 3e d0 b8 5f be
       0.92518246 0.6660141 0.2365297 -0.21847844
000250 15 89 07 bb 10 2d 91 bd e8 10 fe 3d d0 52 f4 bd
       -0.0020681072 -0.07088673 0.12405568 -0.11929858
000260 18 2a 4a be 16 f1 cd 3d 18 23 af bd c3 42 ff bd
       -0.1974262 0.10055749 -0.085516155 -0.12463906
000270 bc c3 62 3d 9c fb 95 3e 08 4c 8e 3e e4 53 3e 3e
       0.055362448 0.29293525 0.27792382 0.18586689
000280 0c 7c 23 bf 80 a3 38 3f f9 e3 fd be f4 f7 ac 3e
       -0.63861156 0.7212448 -0.49587992 0.33782923
000290 3e d1 f4 be d1 45 4e bf 89 2b 33 3e 01 95 e3 be
       -0.4781589 -0.8057528 0.17497076 -0.44449618
0002a0 38 c3 e3 bd 84 60 00 bf 4e c1 88 bd 29 17 10 3f
       -0.111212194 -0.5014727 -0.06677495 0.5628534
0002b0 98 49 2c bf 28 b6 13 3e ca 12 d5 be 90 f0 20 be
       -0.67299795 0.14424956 -0.41615897 -0.15716767
0002c0 7a 2b 93 bd 8e 71 2d 3f 39 15 09 3f 1a 90 8c 3e
       -0.07186027 0.67751396 0.5354801 0.2745369
0002d0 c6 b9 10 3f 46 b5 67 3f 96 18 f4 3e be 8f e7 3d
       0.5653347 0.90510976 0.47675008 0.113067135
0002e0 60 b6 2a 3e 68 63 5d bd e3 39 73 bf fc 47 9f 3d
       0.16671133 -0.05404988 -0.95010203 0.07777402
0002f0 be c7 fe 3e a3 a4 57 be b1 b4 a4 be 09 9e 5c bf
       0.49761766 -0.21058898 -0.32169107 -0.8617864
000300 5b e0 e2 3e 2b db f7 be bf 8a 43 bd 7e b7 0a bd
       0.44311795 -0.484094 -0.04773974 -0.033866398
000310 c5 93 1b be 5b 0b 6a be bb 41 c7 bc 60 00 0f bd
       -0.15193088 -0.22855894 -0.024323335 -0.034912467
000320 3f 6b 98 be 45 6f 87 be 00 c2 00 3d 51 02 a9 be
       -0.29769322 -0.2645208 0.031435013 -0.3300958
000330 91 ac e6 be d1 8c 83 bd 02 95 c8 be ef f4 62 be
       -0.45053533 -0.06423343 -0.39176184 -0.22163747
000340 64 3f 95 be 62 01 11 be a6 fc da bd f7 49 e5 3e
       -0.29149926 -0.14160684 -0.1069272 0.44782993
000350 e9 b9 d4 be c2 b4 83 be 42 07 56 bf fa 9c 73 3e
       -0.41548088 -0.25723845 -0.83604825 0.2379035
000360 7d da b1 3e e6 0e 60 3e f8 21 f6 3e 73 c9 21 3e
       0.34737006 0.21880683 0.4807279 0.15799503
000370 3f 8e db bd 3c 6f ab 3e a1 bf d3 3d c0 00 44 3e
       -0.10720491 0.33483303 0.10339285 0.19140911
000380 52 0b 8a bd ed cf 62 3e 82 4d f3 3e 3d cf bc 3e
       -0.067404404 0.2214963 0.4752007 0.3687686
000390 80 2c e6 3e 0f e8 52 3e bf 84 8f be 41 81 7d 3e
       0.44955826 0.20596336 -0.28030965 0.24756338
0003a0 13 13 36 bf 95 31 29 be 25 5c 3e 3d db 7e 9d be
       -0.71122855 -0.1652282 0.046474595 -0.30760846
0003b0 d6 ec 20 3f bf 9b 98 3e e6 d2 d6 3e 65 30 eb 3e
       0.6286138 0.29806325 0.41957778 0.4593536
0003c0 24 9b cd 3e 38 61 f9 bd a5 2f 0a bf 76 f7 e3 3e
       0.40157425 -0.12176746 -0.5397895 0.44524735
0003d0 7a 55 01 3f 5e 46 df 3e b5 52 18 3e ec a4 b9 be
       0.5052105 0.43608373 0.148753 -0.36258638
0003e0 4d c0 e5 3e 3b 3c 2a 3e c1 97 6e be de 40 13 3e
       0.44873276 0.16624539 -0.23300077 0.14380214
0003f0 46 03 64 be 17 8d f2 3d 7f dc ef bc c1 8d 0f 3f
       -0.22266874 0.11843317 -0.029279945 0.56075674

fc2.bias f4 [32]
000000 ab 62 8a 3d 3d cf 33 3e 92 cb be 3e a5 4f 72 be
       0.06757101 0.17559524 0.37264687 -0.23663194
000010 ca b2 35 bd e0 a9 c6 be 5a 21 e6 3e 6a ec 19 bf
       -0.04435996 -0.3880148 0.4494732 -0.60126364
000020 b3 89 30 be 04 50 ea 3e ea 3d b1 3e 1a 4c 66 3e
       -0.17240028 0.45764172 0.3461755 0.22489968
000030 7f 1b b1 3e 16 01 91 bd 9b 32 b9 bd 68 d9 1a bf
       0.3459129 -0.07080285 -0.09042855 -0.60487986
000040 d1 eb a2 bd 0c 2f 85 3e a8 73 65 3d b5 9e cc bd
       -0.07955135 0.26012456 0.0560185 -0.099912085
000050 e1 5e 9a 3e 1b ca 4a be 4b f9 32 bf aa 86 0f 3f
       0.30150512 -0.1980366 -0.6991164 0.56064856
000060 82 3f e7 3c 46 31 ac bb 81 c1 cc bc 84 2a 8f 3e
       0.028228525 -0.0052548973 -0.024994614 0.27962124
000070 e3 f7 07 3f 6d c5 70 3e ca 49 fd be 0e 0c 2d be
       0.5311262 0.23512812 -0.4947036 -0.1689913

fc3.weight f4 [2, 32]
000000 b8 ba 94 3f 9b 41 4d be a8 12 58 be a9 ea b8 3e
       1.1619482 -0.20044558 -0.21100867 0.36116531
000010 09 1b 13 3f ed 54 0c bf 52 c5 37 bf de 60 83 3f
       0.5746313 -0.54817086 -0.7178546 1.0263937
000020 dd e7 b4 bf 60 30 16 3f 1f 42 6d 3f bc d8 93 3f
       -1.4133259 0.58667564 0.9267902 1.1550517
000030 af 71 3a bf 9d a3 ea be 68 06 0d be 6d c6 d1 3f
       -0.7282972 -0.45827952 -0.13771975 1.638868
000040 59 72 77 3e f4 44 b4 3d 33 cc 78 bf 0e b5 a2 3f
       0.24164714 0.08802214 -0.97186583 1.2711504
000050 2e 14 48 bf 03 e9 8b 3e a2 8a 19 3f 57 bd 5f bf
       -0.7815579 0.2732621 0.5997716 -0.87398285
000060 cf b6 2b bf 47 54 d8 3e 48 e1 2c 3f 9c 86 20 3e
       -0.6707582 0.422518 0.6753125 0.1567635
000070 bd 93 d7 3d 21 db 88 3f 08 b6 38 3e de c5 1a bf
       0.10526226 1.0691873 0.1803819 -0.6045817
000080 5c d3 51 bf fc 61 12 c0 20 34 e1 3f b3 6e c6 bf
       -0.81963134 -2.2872305 1.7594032 -1.5502533
000090 15 0b 71 3e d1 e1 f3 bf 15 db 94 3d bd 8b db be
       0.23539384 -1.9053289 0.07268349 -0.4288005
0000a0 bd 31 8e 3c b3 e8 0e bf e5 d6 dc 3d 20 31 95 bd
       0.017357701 -0.5582382 0.107831754 -0.072847605
0000b0 91 f2 00 3f 50 fd 88 bf cd b9 a7 3f 70 2c 2c 3f
       0.50370127 -1.0702305 1.3103577 0.67255306
0000c0 c3 47 1b 3f 96 33 ce 3f 43 2e be 3d 9a da a5 bf
       0.60656375 1.6109493 0.092861675 -1.2957337
0000d0 d4 dc c1 3f 00 65 58 bf 70 ff 06 40 9d 00 ee be
       1.5145516 -0.84529114 2.1093407 -0.46484843
0000e0 9c 62 14 bf 2d 99 9c bf 25 4a fc 3e 77 07 63 3f
       -0.57962966 -1.2234246 0.49275318 0.88683265
0000f0 cc c3 9c 3f 5a a5 62 bf 9c 89 6b c0 d0 77 48 bf
       1.2247252 -0.88533556 -3.680274 -0.7830782

fc3.bias f4 [2]
000000 5c 0d 86 be c4 c3 63 bc
       -0.26182067 -0.013901655

bn1.weight f4 [32]
000000 c1 7f cf 3f 49 11 98 3f 52 45 b8 3f 6e 63 64 3f
       1.6210862 1.1880275 1.4396155 0.8921422
000010 41 4e 5c 3f 4f e5 93 3f 5a 6e 6f 3f ce 5e 94 3f
       0.86056906 1.1554354 0.9352776 1.1591432
000020 39 d2 0e 3f 42 ad 71 3f 0d f0 d7 3f 51 f6 f5 3f
       0.55789524 0.94404995 1.6870133 1.9215795
000030 21 ac c2 3f fb 79 32 3f 83 ee 24 40 14 a9 95 3f
       1.520878 0.6971738 2.5770576 1.1692224
000040 3e 57 87 3f d3 97 93 3f 0d 94 1d 3f aa b9 3b 3f
       1.0573499 1.1530708 0.6155403 0.73330176
000050 3b 0c 43 3f d7 e6 01 40 24 3f d3 3f 51 ca 02 40
       0.7619054 2.0297143 1.6503644 2.0435984
000060 fc d6 2e 3f 00 a3 d9 3f 8b aa 88 3f 17 e9 7d 3f
       0.6829679 1.7002869 1.0677046 0.9918379
000070 8a 2e a3 3f c0 7a 69 3f fe f2 09 40 90 5d be 3f
       1.2748578 0.91202927 2.155456 1.4872303

bn1.bias f4 [32]
000000 86 da ae 3d 7e 6f d6 3e cf 07 1b be fe ad 8c 3d
       0.08537774 0.41881937 -0.15139697 0.06869124
000010 fe 81 90 be b9 45 3c 3e ce 3d 31 3d 07 27 91 be
       -0.28224176 0.18385972 0.043271832 -0.28350088
000020 6c 1a fe 3c 0f 5a f6 3e 4a 50 62 bd a9 a8 80 3e
       0.031018458 0.48115584 -0.05525235 0.25128677
000030 6b d6 89 bd 51 47 21 3e 2b 49 e8 be bf 6b a2 be
       -0.0673035 0.15749861 -0.45368323 -0.3172283
000040 4c ee c4 3e 45 d3 8e be 34 93 e1 3e ee 0a bc be
       0.38463056 -0.2789556 0.4405762 -0.3672709
000050 6f 1a 07 bf ad ab 3b bf 90 ef bc be 13 78 49 3e
       -0.5277471 -0.7330883 -0.36901522 0.19674711
000060 29 06 8a 3e 6c c2 59 3d 36 d8 a9 3d 9d 54 02 bf
       0.26957825 0.05316393 0.08293192 -0.5091036
000070 b3 75 ff bc a8 94 cc be 84 e3 0e 3f db 2c 37 3d
       -0.031184053 -0.39957166 0.5581591 0.044720512

bn1.running_mean f4 [32]
000000 b6 d1 1b 41 29 2e 80 40 9c 7f 22 40 22 73 21 3e
       9.738699 4.005635 2.5390387 0.15766576
000010 9d 3e e5 40 07 c2 ae 3d 22 73 44 40 74 43 8f 40
       7.163893 0.085331015 3.0695271 4.476984
000020 61 3f 69 41 8d 47 16 3f fc 62 6f 40 5f 15 48 3f
       14.577973 0.5870293 3.7404165 0.7815761
000030 2d 08 82 3f e4 7b c8 36 0a e6 38 40 75 71 a0 40
       1.0158745 5.9748872e-06 2.8890405 5.0138497
000040 4a a4 97 40 f0 d5 7b 40 b4 83 73 40 79 55 ba 40
       4.738805 3.9349327 3.8049135 5.8229337
000050 04 00 00 00 33 0d 92 3f 0c 11 7e 3f 52 4f 94 3f
       6e-45 1.1410278 0.9924476 1.1586707
000060 3a 08 d4 3e 2f 72 bb 40 b2 09 f1 40 f2 bc 04 3f
       0.41412526 5.8576884 7.5324335 0.5185081
000070 8c 3d 95 3f bb 69 0b 41 0b 2e af 3f a3 d1 80 3f
       1.1659408 8.713313 1.3685926 1.0063976

bn1.running_var f4 [32]
000000 30 7c c1 41 78 27 d3 41 a3 08 ac 40 fb 3a dd 3e
       24.185638 26.394272 5.3760543 0.4320906
000010 02 65 62 42 67 aa 47 3e ce 07 aa 41 47 77 e6 41
       56.59864 0.19498597 21.25381 28.80824
000020 6f bb 05 42 b3 58 f4 3f 00 0f c0 41 f8 91 4f 3f
       33.43304 1.9089569 24.007324 0.81082106
000030 15 2f 89 40 6b fa bf 37 06 05 50 41 0c 33 1e 42
       4.2869973 2.2885584e-05 13.001226 39.54985
000040 df 09 05 42 87 1b fe 41 ad 83 62 41 d0 2c 35 42
       33.25964 31.763441 14.157147 45.293762
000050 04 00 00 00 ce 58 d4 3f 82 4f f0 3f 50 74 34 3f
       6e-45 1.6589601 1.8774264 0.7048998
000060 a7 17 a3 3f 09 32 79 42 e4 ae ab 42 79 5f 5e 3f
       1.2741593 62.298862 85.84158 0.8686443
000070 7f c8 54 40 2a 15 3b 42 f8 09 54 40 61 40 ab 40
       3.3247373 46.770668 3.3131084 5.3516088

exp_avg f4 [32, 24]
000000 4d e2 6c b8 ee 23 cb 37 a3 22 de b8 a5 61 27 39
       -5.6477544e-05 2.4216217e-05 -0.000105922365 0.00015962737
000010 7b 39 ee 38 2a c4 eb b6 a3 22 de b8 a5 61 27 39
       0.00011359431 -7.0263823e-06 -0.000105922365 0.00015962737
000020 9c f5 11 b8 5b 93 fa 37 d8 e5 92 39 c7 93 5e b8
       -3.4799436e-05 2.987094e-05 0.00028018537 -5.3066553e-05
000030 a7 a6 17 39 60 bc 0a 35 d8 e5 92 39 c7 93 5e b8
       0.00014462565 5.168313e-07 0.00028018537 -5.3066553e-05
000040 d4 b6 42 b8 96 32 ca 37 dc 1d f0 37 5c 27 10 b9
       -4.6423476e-05 2.4103832e-05 2.8624134e-05 -0.00013747573
000050 49 37 37 39 8f ba 20 37 dc 1d f0 37 5c 27 10 b9
       0.00017472835 9.58018e-06 2.8624134e-05 -0.00013747573
000060 71 40 b0 b8 49 ac e1 36 a2 df a6 39 b5 55 db 38
       -8.404337e-05 6.725579e-06 0.00031828607 0.00010458698
000070 a8 fd 12 b7 df 4d af 37 a2 df a6 39 b5 55 db 38
       -8.761337e-06 2.0897887e-05 0.00031828607 0.00010458698
000080 19 0b a6 b8 51 ec 81 37 66 ff 17 3a 01 eb 7c 38
       -7.917564e-05 1.5488042e-05 0.000579825 6.0300346e-05
000090 01 ad 98 b7 c4 b5 fc b5 66 ff 17 3a 01 eb 7c 38
       -1.8200373e-05 -1.8828364e-06 0.000579825 6.0300346e-05
0000a0 a1 cb 55 b8 10 4d 85 37 29 8a 5c 3a 22 1c 80 b8
       -5.09728e-05 1.589072e-05 0.00084129215 -6.108756e-05
0000b0 1e 2b 11 b8 66 aa 19 38 29 8a 5c 3a 22 1c 80 b8
       -3.461085e-05 3.663674e-05 0.00084129215 -6.108756e-05
0000c0 75 e7 7d 39 d0 81 85 b8 1e bc 93 ba d8 7d 02 ba
       0.00024214185 -6.366114e-05 -0.0011271273 -0.00049778586
0000d0 3c 40 37 39 4f b3 f5 38 1e bc 93 ba d8 7d 02 ba
       0.00017476169 0.00011715909 -0.0011271273 -0.00049778586
0000e0 20 ba 92 38 9d e0 ad b8 aa fe de ba cb 73 40 39
       6.996491e-05 -8.29112e-05 -0.0017013152 0.00018353683
0000f0 08 bd 43 39 7b 18 ec 38 aa fe de ba cb 73 40 39
       0.00018667069 0.00011257917 -0.0017013152 0.00018353683
000100 8c 52 d5 b7 75 5d 5f b8 b3 22 35 ba 44 f4 73 39
       -2.5430018e-05 -5.325438e-05 -0.00069097726 0.00023265282
000110 0f 68 4b 39 58 3d e3 38 b3 22 35 ba 44 f4 73 39
       0.00019398353 0.0001083563 -0.00069097726 0.00023265282
000120 2c af 1a 3b 09 c5 5f b9 89 73 fc 39 43 d9 c6 b8
       0.0023602946 -0.00021340339 0.00048151266 -9.481844e-05
000130 b3 c6 0c 3b 1b b4 5f ba 89 73 fc 39 43 d9 c6 b8
       0.0021480739 -0.00085336127 0.00048151266 -9.481844e-05
000140 83 58 1a 3b 7d 58 5a b9 12 c6 11 b9 30 c7 24 39
       0.0023551292 -0.00020823065 -0.00013902065 0.00015714462
000150 f5 cb 15 3b bd 84 40 ba 12 c6 11 b9 30 c7 24 39
       0.0022857164 -0.00073439983 -0.00013902065 0.00015714462
000160 c3 14 31 3b 2e 53 4a b9 33 e9 54 3b d6 03 61 b4
       0.0027020432 -0.00019295208 0.003248763 -2.0956153e-07
000170 d0 92 21 3b ed 64 0e ba 33 e9 54 3b d6 03 61 b4
       0.0024654157 -0.0005431909 0.003248763 -2.0956153e-07
000180 2f ec 5b b6 5f 25 e6 b7 80 d6 b9 b9 79 e3 1e b9
       -3.277102e-06 -2.7435539e-05 -0.00035445765 -0.00015152794
000190 e6 1a 2f 37 92 86 0d 38 80 d6 b9 b9 79 e3 1e b9
       1.0437076e-05 3.3742348e-05 -0.00035445765 -0.00015152794
0001a0 88 eb 4b b8 5a ec 00 b8 7b e1 21 ba 2d 34 27 38
       -4.8618327e-05 -3.0737698e-05 -0.0006175262 3.9864495e-05
0001b0 eb b6 a0 37 f5 78 26 38 7b e1 21 ba 2d 34 27 38
       1.9158664e-05 3.9690134e-05 -0.0006175262 3.9864495e-05
0001c0 fe fe 84 b8 29 de ad b7 6e 56 bb b9 9b 1e 13 39
       -6.3417465e-05 -2.0726658e-05 -0.00035731815 0.00014030414
0001d0 92 af f9 37 4a 8a ea 37 6e 56 bb b9 9b 1e 13 39
       2.976487e-05 2.795937e-05 -0.00035731815 0.00014030414
0001e0 70 85 87 3a 3d 0f 20 b8 c1 ec 86 b9 61 c9 bf b8
       0.001033945 -3.8161164e-05 -0.00025734867 -9.1450995e-05
0001f0 f9 b5 4b 3a e0 60 0c b8 c1 ec 86 b9 61 c9 bf b8
       0.00077709515 -3.3468823e-05 -0.00025734867 -9.1450995e-05
000200 25 a4 86 3a a3 c1 23 b8 3e a4 93 b7 51 c9 e9 37
       0.0010272308 -3.9042567e-05 -1.7600247e-05 2.786951e-05
000210 5e 5c 46 3a dd 9a 50 b8 3e a4 93 b7 51 c9 e9 37
       0.00075668644 -4.9735292e-05 -1.7600247e-05 2.786951e-05
000220 87 7a 8a 3a 02 40 18 b8 bf 3c 69 39 4d a5 af b6
       0.001056508 -3.6299236e-05 0.00022243241 -5.23465e-06
000230 07 e8 3f 3a f2 4c 8c b8 bf 3c 69 39 4d a5 af b6
       0.00073206465 -6.6900524e-05 0.00022243241 -5.23465e-06
000240 80 61 dc b8 70 0f 8d b7 68 11 b0 b9 20 63 35 b9
       -0.00010508578 -1.6815698e-05 -0.00033582305 -0.00017298432
000250 4e b9 ff b8 d6 35 59 37 68 11 b0 b9 20 63 35 b9
       -0.00012193863 1.2946743e-05 -0.00033582305 -0.00017298432
000260 28 41 24 b9 d4 77 05 b8 68 60 58 ba b3 25 df b8
       -0.00015664531 -3.182127e-05 -0.0008254112 -0.00010640491
000270 96 98 d3 b8 b5 cc 0d 38 68 60 58 ba b3 25 df b8
       -0.000100896854 3.3807668e-05 -0.0008254112 -0.00010640491
000280 ae 01 56 b9 6b 03 14 b8 58 c1 54 ba b8 21 9a 38
       -0.00020409256 -3.5289133e-05 -0.00081159687 7.349573e-05
000290 d1 7f a8 b8 ee b0 f9 37 58 c1 54 ba b8 21 9a 38
       -8.034672e-05 2.9765502e-05 -0.00081159687 7.349573e-05
0002a0 c3 78 da 38 ea d0 4c 36 6f ed 79 39 25 2e a7 37
       0.00010417544 3.0519973e-06 0.00023834941 1.9929439e-05
0002b0 8d c1 e6 37 b5 71 36 b8 6f ed 79 39 25 2e a7 37
       2.7508266e-05 -4.349808e-05 0.00023834941 1.9929439e-05
0002c0 eb ce c9 38 39 a2 ab 36 77 3e 8e b8 72 80 62 38
       9.622968e-05 5.1150823e-06 -6.7827226e-05 5.4002223e-05
0002d0 a2 08 b6 36 36 56 c1 b7 77 3e 8e b8 72 80 62 38
       5.4250277e-06 -2.3047538e-05 -6.7827226e-05 5.4002223e-05
0002e0 ef 79 89 38 3c e3 28 37 14 12 f6 b9 ae 78 56 38
       6.555381e-05 1.0066487e-05 -0.00046934246 5.1133968e-05
0002f0 2f 46 a2 b6 d8 24 c6 b7 14 12 f6 b9 ae 78 56 38
       -4.8361467e-06 -2.3620596e-05 -0.00046934246 5.1133968e-05
000300 61 e0 96 36 8d 56 00 b8 44 f1 ca b9 69 25 42 b9
       4.4964695e-06 -3.0598185e-05 -0.000387082 -0.00018515218
000310 95 4a 65 b7 78 17 fb 36 44 f1 ca b9 69 25 42 b9
       -1.3666829e-05 7.483115e-06 -0.000387082 -0.00018515218
000320 84 4b 14 b8 77 9a 2d b8 01 63 23 ba 00 5a c8 b7
       -3.535628e-05 -4.139027e-05 -0.0006232709 -2.3883767e-05
000330 dc 37 d4 b6 7f 46 a6 37 01 63 23 ba 00 5a c8 b7
       -6.3245952e-06 1.982157e-05 -0.0006232709 -2.3883767e-05
000340 6a e2 4f b8 f2 b0 1f b8 04 21 d8 b9 75 8b cf 38
       -4.956351e-05 -3.8073347e-05 -0.0004122333 9.896505e-05
000350 31 7e 8c 36 9c 99 b7 37 04 21 d8 b9 75 8b cf 38
       4.1870157e-06 2.188683e-05 -0.0004122333 9.896505e-05
000360 f6 47 be b8 e3 02 49 b7 d3 14 d2 b9 73 91 bf 39
       -9.07331e-05 -1.1981206e-05 -0.00040069837 0.00036538727
000370 84 b8 be 38 ab 1c cd b8 d3 14 d2 b9 73 91 bf 39
       9.094275e-05 -9.7805016e-05 -0.00040069837 0.00036538727
000380 5d 38 b5 b8 7c 94 9e 37 e6 66 ee 38 f8 8c 7b 39
       -8.641251e-05 1.8904211e-05 0.00011367891 0.0002398974
000390 29 6b f1 38 7e 6a bb b8 e6 66 ee 38 f8 8c 7b 39
       0.00011511736 -8.9366906e-05 0.00011367891 0.0002398974
0003a0 54 71 bb b8 31 01 55 38 c5 cd 48 38 77 3d 96 39
       -8.937964e-05 5.0784267e-05 4.7875354e-05 0.00028656024
0003b0 37 be 1a 39 da 24 9f b8 c5 cd 48 38 77 3d 96 39
       0.00014757445 -7.588575e-05 4.7875354e-05 0.00028656024
0003c0 98 0c 0a 3a c6 fa 88 b8 c0 31 01 ba 63 3b 18 ba
       0.0005266159 -6.5316955e-05 -0.0004928373 -0.0005807189
0003d0 2c 2d b9 b8 66 9a e7 b9 c0 31 01 ba 63 3b 18 ba
       -8.829901e-05 -0.0004417479 -0.0004928373 -0.0005807189
0003e0 25 7b b4 39 15 e1 ec b8 8f 5d d4 ba 35 54 83 b9
       0.00034424025 -0.00011295282 -0.0016202199 -0.00025049006
0003f0 11 2c f8 b7 c3 b8 bb b9 8f 5d d4 ba 35 54 83 b9
       -2.9584424e-05 -0.00035805078 -0.0016202199 -0.00025049006

exp_avg_sq f4 [32, 24]
000000 78 14 be 34 89 68 6c 32 e2 64 a6 36 e0 3f 8d 34
       3.540515e-07 1.37607765e-08 4.95893e-06 2.6309772e-07
000010 cb f2 be 34 b9 b8 37 32 e2 64 a6 36 e0 3f 8d 34
       3.5566913e-07 1.0694003e-08 4.95893e-06 2.6309772e-07
000020 e1 ef bc 34 c2 57 44 32 73 93 a3 36 87 dc 86 34
       3.5192264e-07 1.1428655e-08 4.874944e-06 2.51199e-07
000030 82 4d d9 34 1c a8 84 32 73 93 a3 36 87 dc 86 34
       4.0475794e-07 1.544327e-08 4.874944e-06 2.51199e-07
000040 8c 42 a3 34 0c 73 17 32 57 47 ac 36 d6 90 90 34
       3.0409535e-07 8.815515e-09 5.1343045e-06 2.6927472e-07
000050 dc 92 ff 34 dd 62 0a 33 57 47 ac 36 d6 90 90 34
       4.7604306e-07 3.2220544e-08 5.1343045e-06 2.6927472e-07
000060 f3 c0 60 34 31 a8 bf 31 b6 d0 ce 35 bf 4d 63 33
       2.093182e-07 5.5779528e-09 1.5408939e-06 5.2923266e-08
000070 47 39 5c 32 2f dc 8a 33 b6 d0 ce 35 bf 4d 63 33
       1.2818709e-08 6.466177e-08 1.5408939e-06 5.2923266e-08
000080 52 62 5a 34 7e 2d c4 31 b3 70 da 35 5a 2f 4c 33
       2.0338601e-07 5.7095226e-09 1.6275065e-06 4.7540517e-08
000090 21 ec b4 31 bb 58 92 33 b3 70 da 35 5a 2f 4c 33
       5.2655342e-09 6.814795e-08 1.6275065e-06 4.7540517e-08
0000a0 1d b8 50 34 dd 08 bc 31 ac bd f1 35 d4 34 5f 33
       1.943849e-07 5.4725278e-09 1.8011101e-06 5.196928e-08
0000b0 45 8d 9e 31 e1 c7 8b 33 ac bd f1 35 d4 34 5f 33
       4.6144657e-09 6.50905e-08 1.8011101e-06 5.196928e-08
0000c0 fd 26 c0 35 65 7e 8b 33 95 fb a8 37 5d 64 aa 35
       1.4316462e-06 6.495683e-08 2.0144313e-05 1.2695197e-06
0000d0 0a 79 e3 34 94 84 de 34 95 fb a8 37 5d 64 aa 35
       4.2370112e-07 4.1447186e-07 2.0144313e-05 1.2695197e-06
0000e0 35 6d bd 35 b6 cf 90 33 03 c6 a7 37 01 04 a7 35
       1.4113381e-06 6.743305e-08 2.0000158e-05 1.2443635e-06
0000f0 17 c3 d5 34 ce c0 e6 34 03 c6 a7 37 01 04 a7 35
       3.9816288e-07 4.2981122e-07 2.0000158e-05 1.2443635e-06
000100 71 db b8 35 7f a9 8c 33 7e f2 b7 37 6b 83 9c 35
       1.3772934e-06 6.550089e-08 2.192822e-05 1.1661153e-06
000110 92 c2 f1 34 10 90 ed 34 7e f2 b7 37 6b 83 9c 35
       4.5031317e-07 4.424951e-07 2.192822e-05 1.1661153e-06
000120 b7 92 b2 37 4e 3d 62 34 db db a8 37 88 a6 77 36
       2.1287573e-05 2.1070193e-07 2.0129539e-05 3.6902802e-06
000130 61 ba 46 37 6b 0c fd 35 db db a8 37 88 a6 77 36
       1.1845114e-05 1.8853583e-06 2.0129539e-05 3.6902802e-06
000140 04 4b bb 37 3f 6f 03 34 d2 a7 dc 37 2f a8 6d 36
       2.2327069e-05 1.2240797e-07 2.6304191e-05 3.5413648e-06
000150 40 25 74 37 a2 69 9e 35 d2 a7 dc 37 2f a8 6d 36
       1.4552206e-05 1.180266e-06 2.6304191e-05 3.5413648e-06
000160 2f 71 a8 37 61 53 e5 33 e3 41 9b 38 5f 37 9b 36
       2.0079866e-05 1.067881e-07 7.403248e-05 4.625806e-06
000170 13 e2 97 37 2f d3 03 35 e3 41 9b 38 5f 37 9b 36
       1.8105877e-05 4.9108615e-07 7.403248e-05 4.625806e-06
000180 48 91 c6 33 3e 40 b0 31 90 60 b3 35 c5 49 b4 33
       9.24652e-08 5.1295777e-09 1.3364643e-06 8.395322e-08
000190 85 11 02 33 fc 0b 06 33 90 60 b3 35 c5 49 b4 33
       3.0283918e-08 3.1210206e-08 1.3364643e-06 8.395322e-08
0001a0 49 06 bc 33 be 7e a1 31 cd 32 b7 35 a1 c4 99 33
       8.7555755e-08 4.7001256e-09 1.3649347e-06 7.160384e-08
0001b0 03 00 10 33 25 fc 19 33 cd 32 b7 35 a1 c4 99 33
       3.3527623e-08 3.5852413e-08 1.3649347e-06 7.160384e-08
0001c0 8e 2c b3 33 08 60 92 31 d8 84 ef 35 30 ee 9a 33
       8.3434415e-08 4.2600767e-09 1.784555e-06 7.21451e-08
0001d0 72 e5 3f 33 cc 36 33 33 d8 84 ef 35 30 ee 9a 33
       4.4679332e-08 4.1726523e-08 1.784555e-06 7.21451e-08
0001e0 05 aa 25 36 63 d4 aa 33 35 36 f1 37 78 6d 0e 36
       2.468588e-06 7.954875e-08 2.875468e-05 2.1223368e-06
0001f0 ba 4d bb 35 4e dd 8c 34 35 36 f1 37 78 6d 0e 36
       1.3955207e-06 2.6238052e-07 2.875468e-05 2.1223368e-06
000200 79 5a 1f 36 7c ee 26 33 9c a9 14 38 94 e9 02 36
       2.3745508e-06 3.8866787e-08 3.544391e-05 1.950747e-06
000210 fb c0 d3 35 fe 86 2a 34 9c a9 14 38 94 e9 02 36
       1.577689e-06 1.5881594e-07 3.544391e-05 1.950747e-06
000220 b8 35 12 36 00 54 e5 32 95 f0 c8 37 e0 e8 07 36
       2.1786964e-06 2.6697307e-08 2.3953888e-05 2.0252119e-06
000230 b9 bc ed 35 ec ac 11 34 95 f0 c8 37 e0 e8 07 36
       1.7712802e-06 1.3567086e-07 2.3953888e-05 2.0252119e-06
000240 8a e9 d0 33 d2 5e 9b 31 72 97 22 36 3e 37 06 34
       9.728235e-08 4.5218735e-09 2.4228034e-06 1.249982e-07
000250 ed 3a 2e 33 61 51 f2 32 72 97 22 36 3e 37 06 34
       4.0566125e-08 2.8209515e-08 2.4228034e-06 1.249982e-07
000260 28 5a ef 33 ca e1 95 31 c3 23 2f 36 92 31 e3 33
       1.1145704e-07 4.36214e-09 2.6097848e-06 1.0579528e-07
000270 90 cb 14 33 95 19 ea 32 c3 23 2f 36 92 31 e3 33
       3.4644074e-08 2.7252819e-08 2.6097848e-06 1.0579528e-07
000280 a3 de ed 33 00 cb 85 31 ce 35 35 36 91 45 e8 33
       1.107667e-07 3.893888e-09 2.700242e-06 1.0815996e-07
000290 98 3f 12 33 5f ea e9 32 ce 35 35 36 91 45 e8 33
       3.4051112e-08 2.723135e-08 2.700242e-06 1.0815996e-07
0002a0 1e df 48 34 a0 6e 1a 32 44 83 fa 35 d8 74 da 33
       1.8707621e-07 8.989133e-09 1.8664655e-06 1.017267e-07
0002b0 e9 e0 db 31 39 05 7a 33 44 83 fa 35 d8 74 da 33
       6.399308e-09 5.821241e-08 1.8664655e-06 1.017267e-07
0002c0 eb f3 35 34 a9 0c 17 32 58 c7 ed 35 c7 98 af 33
       1.6945675e-07 8.792235e-09 1.7715893e-06 8.1768626e-08
0002d0 73 bb ff 31 6a 58 83 33 58 c7 ed 35 c7 98 af 33
       7.4427873e-09 6.116245e-08 1.7715893e-06 8.1768626e-08
0002e0 86 04 15 34 87 79 01 32 83 e6 03 36 0d a8 bc 33
       1.3878352e-07 7.53642e-09 1.9654697e-06 8.7850005e-08
0002f0 78 c9 51 32 f0 2b 61 33 83 e6 03 36 0d a8 bc 33
       1.221121e-08 5.2426856e-08 1.9654697e-06 8.7850005e-08
000300 35 6c ee 32 fe 13 53 31 88 ff 49 35 01 c5 5e 33
       2.7756053e-08 3.0715905e-09 7.525018e-07 5.1867577e-08
000310 e7 83 c7 33 5a e9 d5 31 88 ff 49 35 01 c5 5e 33
       9.2906525e-08 6.225645e-09 7.525018e-07 5.1867577e-08
000320 1a 36 e5 32 b7 c6 43 31 79 1e 62 35 03 45 31 33
       2.6683711e-08 2.848919e-09 8.4235904e-07 4.127379e-08
000330 5a e1 ee 33 bb 20 1c 32 79 1e 62 35 03 45 31 33
       1.112373e-07 9.087837e-09 8.4235904e-07 4.127379e-08
000340 b9 fd d0 32 e4 fd 2c 31 45 1c 85 35 4d d3 51 33
       2.4329767e-08 2.5173614e-09 9.9175e-07 4.885378e-08
000350 36 57 0f 34 15 13 65 32 45 1c 85 35 4d d3 51 33
       1.334964e-07 1.3333893e-08 9.9175e-07 4.885378e-08
000360 2c e8 24 35 9d 90 90 32 a7 4d a2 36 df 04 fc 34
       6.1432615e-07 1.6829569e-08 4.837016e-06 4.6942202e-07
000370 96 4e a3 34 78 b6 1e 34 a7 4d a2 36 df 04 fc 34
       3.0418295e-07 1.4781278e-07 4.837016e-06 4.6942202e-07
000380 f7 cc 2e 35 2b c0 90 32 83 a4 9f 36 d9 c7 93 34
       6.5118314e-07 1.6851194e-08 4.757721e-06 2.7526292e-07
000390 d5 29 b9 34 db 0f 28 34 83 a4 9f 36 d9 c7 93 34
       3.4489372e-07 1.5651987e-07 4.757721e-06 2.7526292e-07
0003a0 be ae 30 35 bb 7f 80 32 fa 59 f2 36 3e 40 87 34
       6.581939e-07 1.4959246e-08 7.2226367e-06 2.5192452e-07
0003b0 8f 17 db 34 08 35 3b 34 fa 59 f2 36 3e 40 87 34
       4.080907e-07 1.7435025e-07 7.2226367e-06 2.5192452e-07
0003c0 ed e7 4a 36 71 2e 3d 33 0d 28 0c 37 37 01 69 35
       3.0235344e-06 4.404723e-08 8.353975e-06 8.680103e-07
0003d0 72 b1 b7 33 47 d9 45 35 0d 28 0c 37 37 01 69 35
       8.553879e-08 7.37044e-07 8.353975e-06 8.680103e-07
0003e0 d9 1d 49 36 83 14 58 33 9f 6d e2 36 45 3d 4a 35
       2.9968708e-06 5.0310074e-08 6.7480864e-06 7.5340023e-07
0003f0 17 86 df 32 53 12 51 35 9f 6d e2 36 45 3d 4a 35
       2.6021594e-08 7.788523e-07 6.7480864e-06 7.5340023e-07

exp_avg f4 [32]
000000 a6 1a a3 b5 68 8d 9e 37 49 d3 ed 37 27 e5 64 b9
       -1.2152202e-06 1.8900915e-05 2.8350989e-05 -0.0002182914
000010 9c 87 4b 36 dc 70 90 b8 4f ba c7 36 25 5d d9 b6
       3.0328292e-06 -6.887477e-05 5.9523513e-06 -6.4779474e-06
000020 36 ff 78 34 af 86 79 b7 85 f4 48 b8 ae 75 84 b8
       2.3189645e-07 -1.4872915e-05 -4.7911442e-05 -6.31617e-05
000030 43 a8 93 b4 46 c5 a7 29 9a fa d3 36 c8 4e 9f 37
       -2.750331e-07 7.450511e-14 6.317464e-06 1.8990962e-05
000040 af 9e 97 b7 58 17 44 37 c8 5a 0f b8 97 4e 24 b7
       -1.8074496e-05 1.16879455e-05 -3.4178403e-05 -9.79346e-06
000050 04 00 00 00 89 24 b0 36 d0 44 e3 b7 00 98 4a 38
       6e-45 5.249462e-06 -2.7092552e-05 4.8302114e-05
000060 b8 9d 7b 37 0a f1 01 38 48 99 8d 37 6f 47 0c b8
       1.4997488e-05 3.0980482e-05 1.6879887e-05 -3.344513e-05
000070 54 74 10 36 6e 42 c8 b6 2c 43 b3 38 6c 1c 02 b5
       2.1525384e-06 -5.968198e-06 8.547897e-05 -4.8470133e-07

exp_avg_sq f4 [32]
000000 3a 9f 16 30 19 5d 11 31 49 0e 6a 32 12 25 4d 34
       5.4795957e-10 2.1153197e-09 1.3623841e-08 1.9105599e-07
000010 47 95 9e 30 59 89 29 33 b5 e4 a1 30 53 29 d2 30
       1.153844e-09 3.9473296e-08 1.1779294e-09 1.5291256e-09
000020 0d 90 12 2e da a4 00 32 8c 40 b6 32 80 b4 99 33
       3.33245e-11 7.4880635e-09 2.1216941e-08 7.1574505e-08
000030 86 a2 92 31 1a 43 40 1f c8 2d 8e 32 2f 73 a3 30
       4.267636e-09 4.0713087e-20 1.6551795e-08 1.1892548e-09
000040 9c 4a 93 31 54 47 42 31 1a da 81 30 ca bb 01 30
       4.286745e-09 2.827126e-09 9.447974e-10 4.719679e-10
000050 f4 01 00 00 69 81 48 33 4f 41 01 33 57 61 a1 34
       7e-43 4.6683827e-08 3.009455e-08 3.005941e-07
000060 d9 6f 23 31 da 79 a9 31 a7 c1 20 31 9f 46 56 32
       2.37832e-09 4.9324003e-09 2.3393143e-09 1.2472497e-08
000070 d6 0e 7a 31 0d 9e 97 2e 42 ab 06 34 ef 11 04 32
       3.6388221e-09 6.8947605e-11 1.2542026e-07 7.687489e-09

exp_avg f4 [32, 32]
000000 43 22 ad b9 a0 44 d1 38 55 11 a4 38 e1 ec 1d b8
       -0.00033022658 9.978679e-05 7.823358e-05 -3.7652328e-05
000010 54 02 3e b8 57 2b 8c 37 0d 86 b3 36 02 ad 07 39
       -4.53017e-05 1.6709482e-05 5.3502213e-06 0.00012939054
000020 de 47 89 b8 cf 8b 32 39 8b 64 82 39 27 5d a3 b8
       -6.5460554e-05 0.00017027486 0.00024870443 -7.789797e-05
000030 0b c6 37 38 be a6 99 b6 39 8b 38 39 f0 38 28 39
       4.3815042e-05 -4.5791667e-06 0.00017599472 0.0001604294
000040 be 32 ad 38 5a f8 b2 38 00 f1 bb b8 b1 f7 95 b8
       8.258734e-05 8.5339605e-05 -8.9617446e-05 -7.15101e-05
000050 5d 36 82 37 06 10 8a b9 e9 5a 4b b8 9f b9 4b b9
       1.5522523e-05 -0.0002633335 -4.848364e-05 -0.00019428738
000060 08 c4 89 b7 d1 fc 8b 39 17 e3 e9 38 52 e9 02 b8
       -1.6422957e-05 0.0002670051 0.000111526046 -3.121171e-05
000070 6f 5f ad 39 d1 b9 91 b8 5b 5f d9 38 4a a5 a1 37
       0.00033068235 -6.94875e-05 0.00010365128 1.9269664e-05
000080 7c 73 2b b8 48 fc 86 38 90 9e 2c b9 4c 9b b7 37
       -4.087713e-05 6.436609e-05 -0.00016462267 2.1887616e-05
000090 42 b6 c0 38 c6 1a 10 ba c1 11 63 b8 b4 38 1e 39
       9.1892216e-05 -0.00054971536 -5.4137552e-05 0.00015089178
0000a0 25 9e b2 37 d2 cb 10 b9 19 45 0b b8 a0 30 2a 39
       2.1292895e-05 -0.00013808839 -3.3204535e-05 0.00016230578
0000b0 20 8b 25 38 78 ec a7 b7 ff 62 9c 39 63 ee f3 38
       3.9468636e-05 -2.0018066e-05 0.00029828397 0.00011631546
0000c0 dc 14 80 38 ad aa ef 38 75 d7 3b b8 fb ef cc 38
       6.107401e-05 0.00011428199 -4.4784934e-05 9.772178e-05
0000d0 72 cc 8c 38 14 6b 8f 39 b2 0b 64 39 71 81 99 b9
       6.713801e-05 0.00027354865 0.00021748131 -0.00029278875
0000e0 05 69 cd 37 de 18 97 37 43 86 d4 b7 b6 97 e8 b6
       2.4486808e-05 1.8012182e-05 -2.533489e-05 -6.9318003e-06
0000f0 15 b5 ea 37 62 99 66 39 00 e9 da b9 0d 84 15 38
       2.7979297e-05 0.00021991649 -0.000417538 3.564735e-05
000100 7e c5 2a 39 dd 48 93 b8 b4 68 18 39 5e f8 bf 37
       0.00016286035 -7.023078e-05 0.00014534855 2.288463e-05
000110 2d e3 56 b8 56 63 fe 39 84 20 05 39 9b 57 0d b9
       -5.123315e-05 0.00048520666 0.00012695981 -0.00013479443
000120 7f 72 8c 37 dc cf 41 38 ad 4f 32 38 db c5 8c b9
       1.6742617e-05 4.620837e-05 4.251271e-05 -0.00026850295
000130 3d 58 92 b8 02 b7 8d 37 87 0b 91 b9 bb 8d eb b8
       -6.978258e-05 1.689373e-05 -0.00027665144 -0.000112320726
000140 5b e0 90 b8 f6 d0 fe b8 a4 c6 be 38 72 8a 74 b7
       -6.9082445e-05 -0.00012150586 9.096906e-05 -1.4575768e-05
000150 81 c5 6d b8 f5 20 a0 b9 a5 40 42 b9 6d 26 d1 39
       -5.6689143e-05 -0.00030542133 -0.00018525364 0.00039892216
000160 31 cc 0e b8 a2 0a 06 b8 a9 06 0d 38 c5 18 54 b8
       -3.4045606e-05 -3.1957992e-05 3.3623222e-05 -5.0567807e-05
000170 0a 20 32 b9 4c 1e ca b8 92 d1 01 3a e1 76 b2 b8
       -0.00016987338 -9.637754e-05 0.0004952188 -8.509844e-05
000180 f3 29 04 b9 d8 46 88 37 f6 fe fb b8 a1 a1 31 b8
       -0.00012604128 1.6245453e-05 -0.00012016103 -4.2350617e-05
000190 10 36 de 37 15 c3 ed b9 65 51 43 b9 50 4a b9 38
       2.6489637e-05 -0.0004534951 -0.00018626971 8.835329e-05
0001a0 d7 e8 74 b7 a7 f5 39 b8 73 34 e5 b8 66 91 68 39
       -1.4597746e-05 -4.433622e-05 -0.0001092934 0.0002217941
0001b0 4d 71 91 38 68 0d 98 b7 38 b2 3b 39 23 73 e4 38
       6.935243e-05 -1.8126055e-05 0.00017900101 0.00010893333
0001c0 d1 47 0c 38 35 cb 8c 38 09 23 d1 b8 85 fa b1 b7
       3.3445485e-05 6.7135705e-05 -9.9724224e-05 -2.1216701e-05
0001d0 d8 0a 7f 38 8e 50 94 39 8b f2 2a 39 80 5c ca b9
       6.0806837e-05 0.00028288778 0.00016302818 -0.0003859736
0001e0 f7 10 8e b7 97 33 a9 b7 cf 3c 84 b8 01 5c 8c 38
       -1.6935619e-05 -2.0170393e-05 -6.305577e-05 6.692857e-05
0001f0 9f f1 29 39 08 c2 57 b6 2d ce 0c ba a1 cc 8d 37
       0.00016207107 -3.2150438e-06 -0.0005371299 1.6903798e-05
000200 5b ed 91 36 4c ba cf 37 bd 0d 4d b8 d1 04 81 b6
       4.3489686e-06 2.4763074e-05 -4.8888603e-05 -3.8450603e-06
000210 a8 fe c9 b7 17 d4 93 b5 df ae 8b b7 74 8b 27 37
       -2.407965e-05 -1.101408e-06 -1.6651522e-05 9.986445e-06
000220 c1 16 b7 35 00 5a 96 35 d8 5b 14 b8 b1 81 d1 37
       1.3641185e-06 1.1202064e-06 -3.5371486e-05 2.4975134e-05
000230 b8 d7 db b5 1a e5 82 36 fc ac b4 37 3a 64 82 35
       -1.6379554e-06 3.900973e-06 2.1538224e-05 9.714925e-07
000240 e4 d8 c8 37 0c 94 88 34 7d 38 5b 37 28 2a 83 b7
       2.3942855e-05 2.5439692e-07 1.3066569e-05 -1.5636047e-05
000250 d0 ec 5a b7 51 6d 04 38 95 1d c0 37 fc f4 d4 b6
       -1.304895e-05 3.157306e-05 2.2901959e-05 -6.3466123e-06
000260 42 54 8b 35 ac 0f 02 b8 31 20 ad b7 71 27 9a b7
       1.0380829e-06 -3.100901e-05 -2.0638197e-05 -1.8376597e-05
000270 9a 22 49 b6 45 7a 31 36 ba 47 f1 b7 93 ba e4 b6
       -2.9971475e-06 2.6446226e-06 -2.8762839e-05 -6.8166496e-06
000280 75 ad f9 b7 ed 3a fa 37 fa 89 ea b6 8b 89 9a 37
       -2.9763885e-05 2.9829762e-05 -6.989806e-06 1.8422279e-05
000290 eb 60 47 37 d9 63 97 b5 e8 6d 2c 37 3e 01 86 37
       1.188389e-05 -1.1279436e-06 1.0277588e-05 1.5974623e-05
0002a0 11 cf b6 b7 30 93 08 b7 ed a3 06 b8 35 92 94 b7
       -2.1792514e-05 -8.140501e-06 -3.2100757e-05 -1.7711058e-05
0002b0 43 f1 30 38 ac 0a 19 35 d3 02 c3 38 77 69 74 37
       4.2186362e-05 5.701247e-07 9.298851e-05 1.4568089e-05
0002c0 bd db 38 37 96 30 49 37 bf e1 af 37 bf 8d 81 37
       1.1018416e-05 1.1991846e-05 2.0966747e-05 1.5444004e-05
0002d0 7d 58 03 b6 d8 14 34 b8 9a aa 55 37 4d 7b f3 b7
       -1.9572028e-06 -4.2934756e-05 1.2735511e-05 -2.9025274e-05
0002e0 1a 32 14 38 67 bb 13 b8 f0 39 34 b7 c1 12 84 b5
       3.533261e-05 -3.5222063e-05 -1.0742326e-05 -9.840224e-07
0002f0 5d 87 5a b8 6b 73 c4 36 45 6b 7b b7 d3 8a 34 38
       -5.2101317e-05 5.8546916e-06 -1.49857415e-05 4.3044634e-05
000300 ec 02 a0 39 5f ca 04 b8 5d af 5c 38 96 d1 ed 38
       0.00030519755 -3.1659725e-05 5.2615407e-05 0.00011340079
000310 8d 2e 91 38 29 2e 1d 39 5b a0 66 39 88 48 cd b8
       6.9228096e-05 0.00014989883 0.00021994246 -9.788672e-05
000320 44 db b9 38 ff 96 67 b8 94 2e 49 38 58 a9 e8 b8
       8.862329e-05 -5.5215318e-05 4.7965514e-05 -0.00011094165
000330 de 38 d1 b8 e4 9c 89 37 53 b9 40 b9 b4 34 00 b9
       -9.976489e-05 1.640473e-05 -0.00018379586 -0.00012226665
000340 50 ed 29 b8 58 55 cd b8 42 65 24 39 e5 b0 05 39
       -4.0513754e-05 -9.791058e-05 0.0001567798 0.00012749767
000350 36 ff 66 b8 a2 4d 7f b8 a7 d2 58 b8 2f b8 ac 39
       -5.5073957e-05 -6.086904e-05 -5.16946e-05 0.00032943624
000360 9c 4f 55 37 a3 b3 ab b6 c5 75 71 38 6a 30 26 b9
       1.2714325e-05 -5.1171096e-06 5.756856e-05 -0.0001584903
000370 6e ec af b9 bd 4f 27 39 bc 00 b6 39 69 f9 9f b8
       -0.00033554755 0.00015956066 0.00034714292 -7.628167e-05
000380 6e e1 e4 b7 96 6a 0d 38 e8 05 f8 b7 e7 0f 13 b6
       -2.7284692e-05 3.3716286e-05 -2.9566654e-05 -2.1913963e-06
000390 72 81 9a b7 2b 7a 97 b5 e6 de 2b b7 e8 9e a8 37
       -1.8418508e-05 -1.1285932e-06 -1.0244292e-05 2.0101157e-05
0003a0 f5 c9 12 b7 24 2d 2c 36 43 94 cd b7 61 04 92 37
       -8.7493e-06 2.5656273e-06 -2.4506944e-05 1.7406595e-05
0003b0 0f 03 0c b6 34 86 46 36 98 f9 4d 38 80 5d 77 37
       -2.0863406e-06 2.9582416e-06 4.910826e-05 1.4744117e-05
0003c0 39 2b e0 37 c7 83 40 37 da bf 62 36 0c 22 62 b7
       2.6723008e-05 1.1474774e-05 3.3788297e-06 -1.3478577e-05
0003d0 47 1a 26 b7 49 e6 bb b5 48 f6 58 37 7c 1b 09 37
       -9.900489e-06 -1.3999608e-06 1.2931945e-05 8.1722355e-06
0003e0 8d 35 2c 37 7c 8e b8 b7 d8 95 70 b7 21 3d 84 b7
       1.0264467e-05 -2.2000859e-05 -1.4340003e-05 -1.5764092e-05
0003f0 ec 95 50 b6 07 a1 ab b6 c8 29 9f b7 31 0b dc b6
       -3.1081681e-06 -5.114943e-06 -1.8973733e-05 -6.557814e-06
